…
ERROR - data_utils.Desed - File ../dataset/audio/validation/Y63xWsWuH-eI_10.000_20.000.wav is in the tsv file but the feature is not extracted because file do not exist!
ERROR - data_utils.Desed - File ../dataset/audio/validation/Y9q3P6N22V9M_40.000_50.000.wav is in the tsv file but the feature is not extracted because file do not exist!
INFO - data_utils.Desed - features created/retrieved in 0.53s, metadata: ../dataset/features/sr16000_win2048_hop255_mels128_nolog/metadata/audio/validation/validation.tsv
INFO - utilities.Scaler - computing mean
INFO - __main__/<module> - CRNN(
  (cnn): SkipCNN(
    (cnn): Sequential(
      (resblock0): ResidualConvBlock(
        (conv): Conv2d(1, 16, kernel_size=(3, 3), stride=(1, 1), padding=(1, 1))
        (bn): BatchNorm2d(16, eps=0.001, momentum=0.99, affine=True, track_running_stats=True)
        (dropout): Dropout(p=0.5, inplace=False)
        (activation): LeakyReLU(negative_slope=0.2)
        (downsample): Sequential(
          (0): Conv2d(1, 16, kernel_size=(1, 1), stride=(1, 1), bias=False)
          (1): BatchNorm2d(16, eps=0.001, momentum=0.99, affine=True, track_running_stats=True)
        )
      )
      (resblock1): ResidualConvBlock(
        (conv): Conv2d(16, 32, kernel_size=(3, 3), stride=(1, 1), padding=(1, 1))
        (bn): BatchNorm2d(32, eps=0.001, momentum=0.99, affine=True, track_running_stats=True)
        (dropout): Dropout(p=0.5, inplace=False)
        (activation): LeakyReLU(negative_slope=0.2)
        (downsample): Sequential(
          (0): Conv2d(16, 32, kernel_size=(1, 1), stride=(1, 1), bias=False)
          (1): BatchNorm2d(32, eps=0.001, momentum=0.99, affine=True, track_running_stats=True)
        )
      )
      (pooling0): AvgPool2d(kernel_size=[4, 4], stride=[4, 4], padding=0)
      (resblock2): ResidualConvBlock(
        (conv): Conv2d(32, 64, kernel_size=(3, 3), stride=(1, 1), padding=(1, 1))
        (bn): BatchNorm2d(64, eps=0.001, momentum=0.99, affine=True, track_running_stats=True)
        (dropout): Dropout(p=0.5, inplace=False)
        (activation): LeakyReLU(negative_slope=0.2)
        (downsample): Sequential(
          (0): Conv2d(32, 64, kernel_size=(1, 1), stride=(1, 1), bias=False)
          (1): BatchNorm2d(64, eps=0.001, momentum=0.99, affine=True, track_running_stats=True)
        )
      )
      (resblock3): ResidualConvBlock(
        (conv): Conv2d(64, 128, kernel_size=(3, 3), stride=(1, 1), padding=(1, 1))
        (bn): BatchNorm2d(128, eps=0.001, momentum=0.99, affine=True, track_running_stats=True)
        (dropout): Dropout(p=0.5, inplace=False)
        (activation): LeakyReLU(negative_slope=0.2)
        (downsample): Sequential(
          (0): Conv2d(64, 128, kernel_size=(1, 1), stride=(1, 1), bias=False)
          (1): BatchNorm2d(128, eps=0.001, momentum=0.99, affine=True, track_running_stats=True)
        )
      )
      (pooling1): AvgPool2d(kernel_size=[1, 4], stride=[1, 4], padding=0)
      (resblock4): ResidualConvBlock(
        (conv): Conv2d(128, 128, kernel_size=(3, 3), stride=(1, 1), padding=(1, 1))
        (bn): BatchNorm2d(128, eps=0.001, momentum=0.99, affine=True, track_running_stats=True)
        (dropout): Dropout(p=0.5, inplace=False)
        (activation): LeakyReLU(negative_slope=0.2)
      )
      (resblock5): ResidualConvBlock(
        (conv): Conv2d(128, 128, kernel_size=(3, 3), stride=(1, 1), padding=(1, 1))
        (bn): BatchNorm2d(128, eps=0.001, momentum=0.99, affine=True, track_running_stats=True)
        (dropout): Dropout(p=0.5, inplace=False)
        (activation): LeakyReLU(negative_slope=0.2)
      )
      (resblock6): ResidualConvBlock(
        (conv): Conv2d(128, 128, kernel_size=(3, 3), stride=(1, 1), padding=(1, 1))
        (bn): BatchNorm2d(128, eps=0.001, momentum=0.99, affine=True, track_running_stats=True)
        (dropout): Dropout(p=0.5, inplace=False)
        (activation): LeakyReLU(negative_slope=0.2)
      )
      (pooling2): AvgPool2d(kernel_size=[1, 4], stride=[1, 4], padding=0)
      (pooling3): AvgPool2d(kernel_size=[1, 2], stride=[1, 2], padding=0)
    )
  )
  (rnn): BidirectionalGRU(
    (rnn): GRU(128, 128, num_layers=2, batch_first=True, bidirectional=True)
  )
  (dropout): Dropout(p=0.5, inplace=False)
  (dense): Linear(in_features=256, out_features=10, bias=True)
  (sigmoid): Sigmoid()
  (dense_softmax): Linear(in_features=256, out_features=10, bias=True)
  (softmax): Softmax(dim=-1)
)
INFO - __main__/<module> - number of parameters in the model: 1052132
INFO - __main__/train - Epoch: 0	 Time 14.03	 lr 8.21E-06 	weak_class_loss 0.5483 	Weak EMA loss 0.6252 	Strong loss 0.4990 	Strong EMA loss 0.5926 	Consistency weight 0.0164 	Consistency strong 8.02E-05 	Consistency weak 6.60E-05 	Loss 1.0474 	
INFO - __main__/<module> - 
…
