…
ERROR - data_utils.Desed - File ../dataset/audio/validation/Y86owBlJa8f0_24.000_34.000.wav is in the tsv file but the feature is not extracted because file do not exist!
ERROR - data_utils.Desed - File ../dataset/audio/validation/Y9q3P6N22V9M_40.000_50.000.wav is in the tsv file but the feature is not extracted because file do not exist!
INFO - data_utils.Desed - features created/retrieved in 0.54s, metadata: ../dataset/features/sr16000_win2048_hop255_mels128_nolog/metadata/audio/validation/validation.tsv
INFO - utilities.Scaler - computing mean
INFO - __main__/<module> - CRNN(
  (cnn): CNN(
    (cnn): Sequential(
      (conv0): Conv2d(1, 16, kernel_size=(3, 3), stride=(1, 1), padding=(1, 1))
      (batchnorm0): BatchNorm2d(16, eps=0.001, momentum=0.99, affine=True, track_running_stats=True)
      (glu0): GLU(
        (sigmoid): Sigmoid()
        (linear): Linear(in_features=16, out_features=16, bias=True)
      )
      (dropout0): Dropout(p=0.5, inplace=False)
      (pooling0): AvgPool2d(kernel_size=[2, 2], stride=[2, 2], padding=0)
      (conv1): Conv2d(16, 32, kernel_size=(3, 3), stride=(1, 1), padding=(1, 1))
      (batchnorm1): BatchNorm2d(32, eps=0.001, momentum=0.99, affine=True, track_running_stats=True)
      (glu1): GLU(
        (sigmoid): Sigmoid()
        (linear): Linear(in_features=32, out_features=32, bias=True)
      )
      (dropout1): Dropout(p=0.5, inplace=False)
      (pooling1): AvgPool2d(kernel_size=[2, 2], stride=[2, 2], padding=0)
      (conv2): Conv2d(32, 64, kernel_size=(3, 3), stride=(1, 1), padding=(1, 1))
      (batchnorm2): BatchNorm2d(64, eps=0.001, momentum=0.99, affine=True, track_running_stats=True)
      (glu2): GLU(
        (sigmoid): Sigmoid()
        (linear): Linear(in_features=64, out_features=64, bias=True)
      )
      (dropout2): Dropout(p=0.5, inplace=False)
      (pooling2): AvgPool2d(kernel_size=[1, 2], stride=[1, 2], padding=0)
      (conv3): Conv2d(64, 128, kernel_size=(3, 3), stride=(1, 1), padding=(1, 1))
      (batchnorm3): BatchNorm2d(128, eps=0.001, momentum=0.99, affine=True, track_running_stats=True)
      (glu3): GLU(
        (sigmoid): Sigmoid()
        (linear): Linear(in_features=128, out_features=128, bias=True)
      )
      (dropout3): Dropout(p=0.5, inplace=False)
      (pooling3): AvgPool2d(kernel_size=[1, 2], stride=[1, 2], padding=0)
      (conv4): Conv2d(128, 128, kernel_size=(3, 3), stride=(1, 1), padding=(1, 1))
      (batchnorm4): BatchNorm2d(128, eps=0.001, momentum=0.99, affine=True, track_running_stats=True)
      (glu4): GLU(
        (sigmoid): Sigmoid()
        (linear): Linear(in_features=128, out_features=128, bias=True)
      )
      (dropout4): Dropout(p=0.5, inplace=False)
      (pooling4): AvgPool2d(kernel_size=[1, 2], stride=[1, 2], padding=0)
      (conv5): Conv2d(128, 128, kernel_size=(3, 3), stride=(1, 1), padding=(1, 1))
      (batchnorm5): BatchNorm2d(128, eps=0.001, momentum=0.99, affine=True, track_running_stats=True)
      (glu5): GLU(
        (sigmoid): Sigmoid()
        (linear): Linear(in_features=128, out_features=128, bias=True)
      )
      (dropout5): Dropout(p=0.5, inplace=False)
      (pooling5): AvgPool2d(kernel_size=[1, 2], stride=[1, 2], padding=0)
      (conv6): Conv2d(128, 128, kernel_size=(3, 3), stride=(1, 1), padding=(1, 1))
      (batchnorm6): BatchNorm2d(128, eps=0.001, momentum=0.99, affine=True, track_running_stats=True)
      (glu6): GLU(
        (sigmoid): Sigmoid()
        (linear): Linear(in_features=128, out_features=128, bias=True)
      )
      (dropout6): Dropout(p=0.5, inplace=False)
      (pooling6): AvgPool2d(kernel_size=[1, 2], stride=[1, 2], padding=0)
    )
  )
  (rnn): BidirectionalGRU(
    (rnn): GRU(128, 128, num_layers=2, batch_first=True, bidirectional=True)
  )
  (dropout): Dropout(p=0.5, inplace=False)
  (dense): Linear(in_features=256, out_features=10, bias=True)
  (sigmoid): Sigmoid()
  (dense_softmax): Linear(in_features=256, out_features=10, bias=True)
  (softmax): Softmax(dim=-1)
)
INFO - __main__/<module> - number of parameters in the model: 1112420
INFO - __main__/train - Epoch: 0	 Time 8.43	 lr 8.21E-06 	weak_class_loss 0.6717 	Weak EMA loss 0.6834 	Strong loss 0.5922 	Strong EMA loss 0.6637 	Consistency weight 0.0164 	Consistency strong 1.46E-05 	Consistency weak 1.07E-05 	Loss 1.2639 	
INFO - __main__/<module> - 
…
